…
Requirement already satisfied: idna<2.9,>=2.5 in ./env/lib/python3.6/site-packages (from requests->visdom->-r requirements.txt (line 6)) (2.8)
Requirement already satisfied: urllib3<1.25,>=1.21.1 in ./env/lib/python3.6/site-packages (from requests->visdom->-r requirements.txt (line 6)) (1.24.1)
Requirement already satisfied: certifi>=2017.4.17 in ./env/lib/python3.6/site-packages (from requests->visdom->-r requirements.txt (line 6)) (2019.3.9)
Directory: ./output/29112922/
----------------------------------------------------------------
        Layer (type)               Output Shape         Param #
================================================================
            Conv2d-1         [-1, 32, 512, 512]           1,184
         LeakyReLU-2         [-1, 32, 512, 512]               0
            Conv2d-3         [-1, 32, 512, 512]           9,248
         LeakyReLU-4         [-1, 32, 512, 512]               0
   DoubleConvBlock-5         [-1, 32, 512, 512]               0
         MaxPool2d-6         [-1, 32, 256, 256]               0
            Conv2d-7         [-1, 64, 256, 256]          18,496
         LeakyReLU-8         [-1, 64, 256, 256]               0
            Conv2d-9         [-1, 64, 256, 256]          36,928
        LeakyReLU-10         [-1, 64, 256, 256]               0
  DoubleConvBlock-11         [-1, 64, 256, 256]               0
        DownBlock-12         [-1, 64, 256, 256]               0
        MaxPool2d-13         [-1, 64, 128, 128]               0
           Conv2d-14        [-1, 128, 128, 128]          73,856
        LeakyReLU-15        [-1, 128, 128, 128]               0
           Conv2d-16        [-1, 128, 128, 128]         147,584
        LeakyReLU-17        [-1, 128, 128, 128]               0
  DoubleConvBlock-18        [-1, 128, 128, 128]               0
        DownBlock-19        [-1, 128, 128, 128]               0
        MaxPool2d-20          [-1, 128, 64, 64]               0
           Conv2d-21          [-1, 256, 64, 64]         295,168
        LeakyReLU-22          [-1, 256, 64, 64]               0
           Conv2d-23          [-1, 256, 64, 64]         590,080
        LeakyReLU-24          [-1, 256, 64, 64]               0
  DoubleConvBlock-25          [-1, 256, 64, 64]               0
        DownBlock-26          [-1, 256, 64, 64]               0
        MaxPool2d-27          [-1, 256, 32, 32]               0
           Conv2d-28          [-1, 512, 32, 32]       1,180,160
        LeakyReLU-29          [-1, 512, 32, 32]               0
           Conv2d-30          [-1, 512, 32, 32]       2,359,808
        LeakyReLU-31          [-1, 512, 32, 32]               0
  DoubleConvBlock-32          [-1, 512, 32, 32]               0
        DownBlock-33          [-1, 512, 32, 32]               0
  ConvTranspose2d-34          [-1, 256, 64, 64]         524,544
           Conv2d-35          [-1, 256, 64, 64]       1,179,904
        LeakyReLU-36          [-1, 256, 64, 64]               0
           Conv2d-37          [-1, 256, 64, 64]         590,080
        LeakyReLU-38          [-1, 256, 64, 64]               0
  DoubleConvBlock-39          [-1, 256, 64, 64]               0
          UpBlock-40          [-1, 256, 64, 64]               0
  ConvTranspose2d-41        [-1, 128, 128, 128]         131,200
           Conv2d-42        [-1, 128, 128, 128]         295,040
        LeakyReLU-43        [-1, 128, 128, 128]               0
           Conv2d-44        [-1, 128, 128, 128]         147,584
        LeakyReLU-45        [-1, 128, 128, 128]               0
  DoubleConvBlock-46        [-1, 128, 128, 128]               0
          UpBlock-47        [-1, 128, 128, 128]               0
  ConvTranspose2d-48         [-1, 64, 256, 256]          32,832
           Conv2d-49         [-1, 64, 256, 256]          73,792
        LeakyReLU-50         [-1, 64, 256, 256]               0
           Conv2d-51         [-1, 64, 256, 256]          36,928
        LeakyReLU-52         [-1, 64, 256, 256]               0
  DoubleConvBlock-53         [-1, 64, 256, 256]               0
          UpBlock-54         [-1, 64, 256, 256]               0
  ConvTranspose2d-55         [-1, 32, 512, 512]           8,224
           Conv2d-56         [-1, 32, 512, 512]          18,464
        LeakyReLU-57         [-1, 32, 512, 512]               0
           Conv2d-58         [-1, 32, 512, 512]           9,248
        LeakyReLU-59         [-1, 32, 512, 512]               0
  DoubleConvBlock-60         [-1, 32, 512, 512]               0
          UpBlock-61         [-1, 32, 512, 512]               0
           Conv2d-62         [-1, 12, 512, 512]             396
     OutConvBLock-63         [-1, 12, 512, 512]               0
  GeneratorUNetV1-64        [-1, 3, 1024, 1024]               0
================================================================
Total params: 7,760,748
Trainable params: 7,760,748
Non-trainable params: 0
----------------------------------------------------------------
Input size (MB): 4.00
Forward/backward pass size (MB): 1622.00
Params size (MB): 29.60
Estimated Total Size (MB): 1655.60
----------------------------------------------------------------
